combined_network.pth (torch, 37618 bytes, 20 tensors)

fc1.weight f4 [32, 12]
000000 cc 1a fa 3d 80 19 a1 3b 92 ff 82 be b6 92 55 be
       0.12212142 0.00491637 -0.2558561 -0.20856747
000010 bf 0e 84 be 5c 5a cf bd ee 60 cf bd 02 e1 38 be
       -0.257925 -0.101246566 -0.1012591 -0.18054584
000020 86 cc 91 bd b8 7e 47 be 9a f3 00 3e 38 43 fb 3d
       -0.07119088 -0.19481933 0.12592927 0.1226868
000030 93 a2 2b be 5e e0 05 be aa e5 9c bd 3e e2 4b 3e
       -0.16761236 -0.1307387 -0.076609924 0.19910523
000040 f5 3d 70 be 2f 54 87 be 2c c2 75 be 02 81 55 3e
       -0.23461135 -0.26431414 -0.23999852 0.20849994
000050 10 06 17 be 76 86 81 3e 35 3e 14 be 0e 1f 60 be
       -0.14748406 0.25297898 -0.14476855 -0.21886846
000060 e6 5f 13 be f0 b9 2e 3e 00 f5 d8 3c 3a 77 09 3e
       -0.14392051 0.17063117 0.026484013 0.13424388
000070 cf 66 89 be 76 f9 54 3e 38 9c 74 3e ec cd 8d 3e
       -0.2683625 0.20798287 0.23887718 0.27696168
000080 92 ce 91 3e 82 cd ed bd e8 02 60 3e ac 9d b0 3d
       0.28477913 -0.11611463 0.21876109 0.086238235
000090 20 6d ce bd 28 43 e1 3d 9c 23 03 3e 3a 43 5d be
       -0.10079408 0.10999137 0.12806553 -0.21607676
0000a0 97 ee 23 be d0 37 c3 bc 38 0e e1 3d ee e4 32 be
       -0.16008984 -0.023830324 0.1098904 -0.17470142
0000b0 d2 ef cb bd aa e7 d3 bd c0 97 de 3d 5e 89 50 3e
       -0.099578515 -0.10346921 0.10868788 0.20364901
0000c0 80 bb e3 3d f6 27 90 be 00 10 ac 3d 3c 84 65 3e
       0.11119747 -0.28155488 0.08401489 0.22413725
0000d0 aa 77 8e 3e 86 e1 a8 bd d0 11 5d 3e 50 27 38 bd
       0.2782567 -0.0824614 0.21588826 -0.044959366
0000e0 6c 87 f2 3d f0 5c 09 3d 78 b5 68 3d 0c aa 14 be
       0.11842236 0.033535898 0.056813687 -0.14517993
0000f0 c4 2b 35 3e dc 98 87 3e 40 82 14 3e 6c e9 10 3e
       0.17692477 0.2648381 0.14502811 0.14151543
000100 02 f5 12 be e9 8c 92 be 18 12 58 bd 30 c4 77 3e
       -0.14351276 -0.2862313 -0.05275163 0.24195933
000110 20 8b 50 3e 41 c1 8b be 90 75 25 3e ce 79 1d 3e
       0.20365572 -0.2729588 0.16158128 0.15378496
000120 fe 55 0e 3e dc 6a 74 be 06 27 8a 3e 70 22 ae 3c
       0.13899991 -0.23868889 0.26982898 0.021256655
000130 10 86 8a be 46 4b 82 3e d0 95 70 be 99 af 0d be
       -0.27055407 0.25448054 -0.23494649 -0.13836516
000140 b6 3b 03 3e 6e 07 e1 bd 1e 82 1b 3e 76 f3 c7 bd
       0.12815747 -0.10987745 0.15186355 -0.09763233
000150 7c 0b ef bd 10 d7 e8 bc 50 2d df bc c8 e0 36 3d
       -0.11672112 -0.028422862 -0.027243286 0.04464796
000160 93 87 08 be d8 62 1b 3d 3a e0 57 3e 18 a6 44 3e
       -0.13332967 0.03793606 0.2108163 0.19203985
000170 00 a9 78 bb 0c bd 3e be e8 f8 7e 3d da 98 91 3e
       -0.0037942529 -0.18626803 0.062249094 0.2843693
000180 7e 4e 89 be 7e 92 23 3e d8 61 6c 3d 36 c7 7b be
       -0.26817697 0.15973851 0.0577105 -0.24587712
000190 0a b3 8e 3e 40 d8 8b 3c 94 c7 8c 3e 65 a4 5c be
       0.2787097 0.01707089 0.27496016 -0.21547087
0001a0 64 32 e4 3d 20 1c 52 be ac 1d de bd f8 8d 87 3e
       0.11142424 -0.20518541 -0.10845503 0.264755
0001b0 58 53 68 3d 3c 27 c6 3d 89 21 8a be dc 52 30 3e
       0.056720108 0.09675452 -0.2697871 0.17219108
0001c0 d8 fd c1 3d 08 29 ca 3d d5 03 7c be 20 9f 2b be
       0.09472245 0.09871107 -0.24610837 -0.1675992
0001d0 24 50 f5 bd 18 4a 86 3e b4 5c 50 3e 82 e0 8b be
       -0.11978176 0.26228404 0.20347863 -0.27319723
0001e0 1a b9 07 be 20 66 36 3e ec 4b 52 3e 4e db 3d be
       -0.13254204 0.17812395 0.20536774 -0.1854069
0001f0 40 fb 80 bb dc 35 9f 3d 80 e7 42 be ec b9 84 3e
       -0.0039362013 0.07773945 -0.19033623 0.25923097
000200 08 85 e8 3d a7 ba 1f be 88 a6 8a 3e 22 bc 11 3e
       0.11353499 -0.15598546 0.27080178 0.14231923
000210 18 c6 f3 3d b8 57 40 3d 3f 90 22 be f2 a2 20 be
       0.11903018 0.046958655 -0.15875338 -0.15687159
000220 3e 9d 8a 3e 34 2d 8e 3d e0 5b 02 be f0 a7 cf 3c
       0.2707309 0.069422156 -0.1273036 0.025348634
000230 84 2f 75 be ba d3 42 be ce a6 81 3e ba 16 59 be
       -0.23943907 -0.1902608 0.25322574 -0.21200076
000240 56 72 66 be 74 36 ba 3d e0 3a 3f 3e 2c 16 e9 3d
       -0.22504553 0.09092417 0.18674803 0.11381182
000250 74 e0 3a be 40 b4 bc 3d 7c 03 58 3e 00 b1 f0 3a
       -0.18249685 0.092140675 0.21095079 0.0018363297
000260 3a d6 a9 bd 40 2e 15 be 4c f2 23 3e 2e c0 1c 3e
       -0.082928136 -0.14568424 0.16010398 0.15307686
000270 88 17 26 bd 34 79 27 3e 00 89 43 3e 60 35 53 3c
       -0.040549785 0.16354829 0.1909523 0.012891144
000280 70 6f 4e 3d 53 92 34 be d8 26 0c 3e 4a cc 07 be
       0.050399244 -0.17633943 0.13686693 -0.13261524
000290 10 c3 74 3e 0c 49 f1 bd 4e 8a 4e 3e a0 69 d4 bd
       0.23902535 -0.11781511 0.20169947 -0.10371709
0002a0 87 a4 0a be 5c 2d 91 3e 82 52 b2 bd 16 54 8d be
       -0.13539325 0.2835492 -0.08707143 -0.27603215
0002b0 3c e3 c5 3d fc 14 71 be 54 fb 24 3e df 9b 51 be
       0.09662482 -0.23543161 0.16111499 -0.20469616
0002c0 8c ba 46 be 12 58 86 3e e0 ca 8c bd 24 e2 61 be
       -0.194071 0.26239067 -0.06874633 -0.22058922
0002d0 ba 16 8d bd c4 8e 9c 3d 08 63 7c be 4c 0e 73 3e
       -0.068891004 0.07644418 -0.24647152 0.23735923
0002e0 a0 1d 1c 3d b6 da 81 be 0a 19 62 be 54 54 e8 3d
       0.03811419 -0.25362176 -0.22079864 0.11344209
0002f0 be a1 06 3e 53 99 83 be aa 8a 88 be 88 e6 4e 3e
       0.13147637 -0.25702915 -0.26668292 0.20205128
000300 39 80 91 be 20 fc e9 bd c0 bd 77 bd 70 7c 1d 3e
       -0.2841814 -0.11425042 -0.060483694 0.153795
000310 c4 29 7a be 18 3b ee 3d 7d 92 36 be 58 62 90 3e
       -0.24429995 0.11632365 -0.17829318 0.2820003
000320 f8 0f 79 3d 08 6b d2 3d 07 93 40 be 66 a2 23 be
       0.060806245 0.10274321 -0.18806086 -0.15979919
000330 ce 52 87 3e f8 c8 11 3d f0 af d5 bc 90 15 92 3c
       0.26430362 0.03559205 -0.02608487 0.017832547
000340 e8 9c 5d be f8 7a 75 be 80 af 40 bc 3f 61 8a be
       -0.21641886 -0.2397269 -0.011760592 -0.27027318
000350 78 d5 8a bd ec 13 ca 3d cc 1f 37 3e a0 bf 6e 3d
       -0.06778997 0.09867081 0.17883223 0.058288217
000360 a6 23 63 be 1f ce 89 be 18 77 56 3e 43 64 4d be
       -0.22181568 -0.2691507 0.20943868 -0.20057778
000370 c0 ab 14 bc be 05 42 3e 70 a6 81 bd 0a 98 39 3e
       -0.0090741515 0.18947503 -0.063305736 0.18124405
000380 94 73 ba 3d 10 c2 fe 3d 04 3c d5 bd 40 82 43 bc
       0.09104076 0.12439358 -0.10411838 -0.0119329095
000390 46 00 fc bd 9c 16 b2 3d 26 18 54 3e 7c 46 f0 3d
       -0.1230474 0.08695719 0.20712337 0.11732194
0003a0 d5 a4 2f be 42 47 84 be 9a c8 0a be 16 0e 91 3e
       -0.17152722 -0.25835615 -0.13553086 0.2833106
0003b0 88 52 6f 3d ec b2 ab bd 78 f6 88 3e 13 98 5f be
       0.058428317 -0.08383736 0.2675054 -0.21835355
0003c0 bb e0 45 be d0 0a 14 3e 02 6d 61 be ce 74 5a be
       -0.19324009 0.1445725 -0.2201424 -0.2133362
0003d0 88 85 81 bd 6a 39 09 3e 90 01 5a 3e ca 5c 8b be
       -0.06324297 0.13400808 0.21289659 -0.2721923
0003e0 d8 a9 27 3d 50 4e 0c be b0 a9 05 bd fc 3b 5f be
       0.04093346 -0.13701749 -0.03263253 -0.21800226
0003f0 20 ad 2b 3d b0 3c 5f 3e 7c 66 85 bd f0 4f 08 bd
       0.04191315 0.21800494 -0.06513688 -0.03327936

fc1.bias f4 [32]
000000 9a 24 81 be 65 62 65 be 44 ce ec bd 3e 10 80 bd
       -0.25223237 -0.22400816 -0.115627795 -0.06253098
000010 74 26 5f 3e 40 2f e4 3b 7b 40 1f be 62 9a 02 3e
       0.21792012 0.0069636405 -0.15551941 0.12754205
000020 50 3c 3d be 6c 98 cd bd 9c e4 62 3e b8 66 40 bd
       -0.18480039 -0.10038838 0.2215752 -0.04697296
000030 14 b0 79 3e 08 65 82 3d a0 f1 0e bd 42 66 be bd
       0.24383575 0.063669264 -0.0348984 -0.09296848
000040 d4 b7 e0 bd 6a 8f 3e 3e 70 ca f9 3d 16 15 31 3e
       -0.109725624 0.18609396 0.12196815 0.172932
000050 5e 6b 3e 3e 20 fb 4d be 2e df 17 be 74 a1 7b 3e
       0.18595645 -0.20115328 -0.1483123 0.24573308
000060 90 9f 84 bc d4 e3 3c 3e ec 4d c8 3d e4 7d 89 3e
       -0.016189367 0.18446285 0.097804874 0.2685386
000070 24 12 57 be 9c 2b ad 3d 80 52 8c 3b 64 b6 e6 3d
       -0.21003014 0.084555835 0.0042822957 0.11265257

fc2_binary.weight f4 [2, 32]
000000 40 77 92 3d 9f 4c 04 3e 84 76 40 3d 0a 65 b1 bd
       0.071516514 0.12919854 0.046988025 -0.0866185
000010 67 a9 06 3e 81 6e 07 3e 7d ca 2a be 9f 8d 22 3e
       0.1315056 0.13225748 -0.16678806 0.15874337
000020 51 43 9a bd a0 0a 7b 3c c3 64 87 bd 91 24 26 be
       -0.07532371 0.015322357 -0.06611016 -0.16224886
000030 44 28 3d bd 12 64 ac bd 0a 8f 21 be e6 ee ad 3d
       -0.04618098 -0.084175244 -0.15777221 0.08492832
000040 2c f9 4d bd 00 b4 4e bd 40 eb 7f bb 12 39 b9 3d
       -0.050286457 -0.05046463 -0.0039050132 0.090440884
000050 0b 5b 11 3e 88 1a 95 3d d8 58 b5 3c c0 16 dc 3b
       0.14194886 0.07280451 0.02213709 0.006716579
000060 84 36 60 3d 70 27 31 3c c0 15 3c bd 1b 9c 95 bd
       0.05473949 0.010812625 -0.04591918 -0.073051654
000070 9d 72 0a 3e a4 1e ed bd 02 3b e7 3d 24 69 2a be
       0.13520284 -0.1157811 0.11290552 -0.1664167
000080 d7 e9 a0 bd d9 9a 31 3e 91 f9 09 3e d7 c3 09 be
       -0.078571014 0.17344226 0.13474108 -0.13453613
000090 23 48 0e be b2 bb ba 3d ca 48 b8 3d e5 7e 0a 3e
       -0.13894705 0.09117831 0.089982584 0.13524969
0000a0 88 e0 1b bd 86 99 a7 3d df 91 17 be f1 d3 af bd
       -0.038055927 0.08183579 -0.14801739 -0.085853465
0000b0 6d f8 8f bd 1c 5e 3e bd 82 9c a1 bd 6b 5d 1a 3e
       -0.07029805 -0.04647647 -0.078911796 0.15074699
0000c0 53 c1 34 3e aa 6f a5 3d 86 d2 63 bd bb 46 98 bd
       0.17651872 0.08077939 -0.055620693 -0.07435366
0000d0 3c c7 5f 3d d7 f0 0f 3e f8 d6 15 be 60 22 93 bc
       0.054633364 0.14056717 -0.14632785 -0.017960727
0000e0 10 05 6f bc 32 5a d5 3d 23 39 32 3e 0e 66 f1 3d
       -0.014588609 0.10417594 0.17404608 0.117870435
0000f0 42 02 a9 3d 6c ee 32 bd 46 99 bb 3d 62 2f a2 3d
       0.08252384 -0.043684408 0.09160094 0.07919194

fc2_binary.bias f4 [2]
000000 51 5a 1c 3e 29 86 29 3e
       0.15268828 0.16555084

fc2_coords.weight f4 [8, 32]
000000 a0 48 d5 3c 70 68 df bc 58 f5 b1 3c a0 e9 99 3b
       0.026035607 -0.02727148 0.021723434 0.0046970397
000010 5e 96 cc 3d 80 c2 9d bc c0 46 6d 3d 42 5b 30 be
       0.09989618 -0.019257784 0.0579288 -0.17222312
000020 15 b3 02 3e 42 d3 a9 3d 03 e0 22 3e e2 70 b4 3d
       0.12763627 0.08292247 0.15905766 0.08810593
000030 b0 ea cf bd 65 8f 1f 3e 1b a5 1f 3e 3e 41 d3 3d
       -0.10152185 0.15582044 0.15590326 0.10315178
000040 b7 31 01 3e 40 59 16 bd e8 b8 2e bd 54 fe 8d 3d
       0.12616621 -0.03670621 -0.04265681 0.06933275
000050 ba 04 b6 3d aa 1a 02 be 41 a7 b5 bd f7 15 c8 bd
       0.0888762 -0.12705484 -0.08869792 -0.097698145
000060 26 18 c0 bd dc 47 7c bd a3 d8 2c 3e 9f 1a 2b 3e
       -0.09379606 -0.061591968 0.16879515 0.16709374
000070 ef e1 b0 bd 36 89 b4 3d 5a e0 0c be 68 29 68 3d
       -0.086368434 0.088152334 -0.13757458 0.056680113
000080 35 5a 06 3e 2a 09 94 3d 6a f9 ed bd cc 34 41 3d
       0.13120349 0.072283104 -0.116198376 0.04716949
000090 0a f4 d8 3d 83 bf 85 bd e4 a2 2b be 12 ba d5 3d
       0.10593422 -0.065306686 -0.16761357 0.10435881
0000a0 50 85 84 bd 28 e5 50 3d 96 e2 18 be ae b8 0c be
       -0.0647074 0.05099979 -0.14930186 -0.13742325
0000b0 86 36 96 3d 18 d9 05 3d d2 d3 9c 3d 06 a1 d5 3d
       0.07334618 0.03267774 0.07657589 0.104311034
0000c0 e7 26 0e 3e f7 8f e7 bd 8b b8 15 3e 90 a4 5f 3c
       0.13882028 -0.11306756 0.14621179 0.013650075
0000d0 58 9f d4 bd 1a f1 bf bd 7c 0c 4f 3d 84 95 0a be
       -0.10381955 -0.09372158 0.050549015 -0.13533598
0000e0 7c 48 34 be 85 70 0f be a8 8f 8e 3d c0 73 f4 3c
       -0.17605776 -0.14007767 0.06960994 0.02984035
0000f0 5b 60 33 3e 5a 4b 95 bd c7 83 31 3e e7 60 2d 3e
       0.17517225 -0.07289763 0.17335425 0.16931497
000100 d2 32 d1 bd f1 bd a7 bd 7e 67 a3 3d 83 87 10 3e
       -0.10214771 -0.08190525 0.07978724 0.14114194
000110 04 2b fe bd 98 cf a1 bc 50 d8 f9 3c e8 2e a4 bc
       -0.12410548 -0.019752309 0.030498654 -0.020041898
000120 6b ec 00 3e c0 1a 32 bc fd 9c 11 be 20 96 31 3d
       0.12590186 -0.0108706355 -0.14220043 0.04335606
000130 a6 d6 75 bd 1c 4e 2e 3d a8 68 67 3d c1 26 de bd
       -0.060019158 0.04255496 0.056496292 -0.108472355
000140 4a ac c6 3d 4a 26 81 3d 0a 27 c7 3d 66 a2 98 bd
       0.0970083 0.06306131 0.09724243 -0.0745285
000150 71 dc 0b 3e ba 11 fb 3d 48 ef 20 bd f8 94 0d bd
       0.1365831 0.122592404 -0.039290696 -0.034565896
000160 fc d8 86 3d d0 77 5a bc a8 41 f9 bc c7 05 21 be
       0.06584355 -0.01333423 -0.030426815 -0.1572486
000170 0c 55 83 bd 1c 28 17 3d e8 4d 48 bd fc 9b 45 bd
       -0.06412706 0.036903486 -0.048902422 -0.04824446
000180 18 34 1e bd a0 a1 a1 3c ae 04 aa 3d b2 4e a3 3d
       -0.0386239 0.01973039 0.08301674 0.07973994
000190 a4 49 50 3d 30 5b 19 bd 86 2d d7 3d c0 b7 10 3b
       0.05085148 -0.03744048 0.1050673 0.002208218
0001a0 c0 45 d7 3c ea 94 99 3d 40 14 23 be 42 e0 e6 bd
       0.026278377 0.07499106 -0.15925694 -0.112732425
0001b0 93 06 08 3e 10 45 64 3c 70 e7 6d bc 6c a5 0a be
       0.13283758 0.013932481 -0.014520511 -0.13539666
0001c0 40 de 80 3c 76 54 fb bd e6 19 f0 3d 40 62 81 3b
       0.015730977 -0.12271969 0.1172369 0.00394848
0001d0 96 12 eb bd 3a ec ba 3d c6 be cc 3d c7 c9 1c 3e
       -0.11478154 0.09127088 0.09997325 0.15311347
0001e0 04 2d 95 3d 88 57 0f be 40 6a c0 3b 61 66 34 3e
       0.07283977 -0.13998234 0.005872041 0.1761718
0001f0 40 d5 d8 bd e7 60 cd bd d1 f3 1d 3e c2 ac 9c 3d
       -0.10587549 -0.10028248 0.1542504 0.076501384
000200 27 88 2d be 56 f9 82 3d d6 94 cf 3d 9b 5b 22 3e
       -0.16946469 0.06395213 0.1013581 0.15855257
000210 76 fa cb 3d 91 c1 30 3e 02 90 c7 3d 4e a4 e5 3d
       0.09959881 0.1726134 0.09744264 0.11212979
000220 1c c9 17 be 56 91 1e be df ca 31 3e 0e d3 b3 3d
       -0.14822811 -0.15485129 0.17362545 0.0878049
000230 ce fa 99 3d fe 83 90 3d c4 8e 94 bd a1 76 e7 bd
       0.0751854 0.070564255 -0.07253793 -0.113019235
000240 da 53 b2 bd 58 09 e6 3c 38 f7 a7 bd 5a 2b 09 be
       -0.087074 0.028080627 -0.0820145 -0.13395444
000250 aa 6e bd bd 5a 89 b9 3d 3c c7 49 3d db d7 16 3e
       -0.09249623 0.09059401 0.04926227 0.1473078
000260 e0 17 d4 bb d0 2d 0f 3d 76 87 a1 bd 8b 90 ab bd
       -0.0064725727 0.0349558 -0.07887165 -0.08377179
000270 2a 30 bc 3d 4b 46 1d 3e 60 17 9a 3c 21 0f 34 be
       0.09188874 0.15358846 0.018809974 -0.17583896
000280 82 79 dd 3d 6d 9f 2a be 8f f5 1c 3e ba e4 dc 3d
       0.108141914 -0.16662379 0.15328048 0.10785814
000290 63 e5 21 3e 78 97 e3 3c 9f 6b c0 bd d6 48 9f bd
       0.1581016 0.027782187 -0.09395527 -0.07777564
0002a0 a1 26 0a 3e 2c 09 05 be c9 20 d4 bd 9d 1a 0c 3e
       0.13491298 -0.1299178 -0.10357816 0.13682027
0002b0 d9 c5 25 3e 63 df b8 bd 9e 15 c2 3d 60 a7 09 bd
       0.16188754 -0.09026983 0.094767794 -0.033606887
0002c0 df ae 00 3e f0 01 19 3d f7 aa b1 bd 72 ce c7 bd
       0.12566708 0.037355363 -0.08675187 -0.09756173
0002d0 90 e1 ff 3c 39 af 88 bd c3 17 9c bd 81 2a 1f 3e
       0.031235486 -0.06674046 -0.0762172 0.15543558
0002e0 08 a3 2d be 84 c5 b5 bd 80 b6 2e 3b 96 36 0a be
       -0.16956723 -0.08875564 0.0026659071 -0.13497385
0002f0 4a d8 ef bd 8a 5f bd 3d fb eb 10 3e 92 b4 c5 bd
       -0.11711176 0.09246738 0.1415252 -0.09653582
000300 3c 12 1c be e0 16 3c bd 90 cf bf bc 7d af 24 be
       -0.15241331 -0.045920253 -0.023414403 -0.16082568
000310 a4 79 01 be 73 45 ee bd ae 97 31 be 20 e2 3b bc
       -0.12644058 -0.1163434 -0.17343017 -0.011467487
000320 88 85 24 bd f6 1b d7 bd 95 9a 03 3e c2 00 26 be
       -0.040166408 -0.1050338 0.12851937 -0.16211227
000330 4b 54 2a 3e 67 a0 1c 3e 45 bd 2c be 6f af 2a 3e
       0.16633718 0.15295564 -0.16869076 0.16668485
000340 5a 3f a3 3d dc 6b 0f 3d d8 d8 8a 3c a1 9e 08 be
       0.07971068 0.035014972 0.016949102 -0.13341762
000350 e3 7d f6 bd c8 c9 8f 3d b0 ce 19 3d e0 78 8e 3d
       -0.1203573 0.070209086 0.03755063 0.06956649
000360 24 14 7a bd 90 22 40 3d f5 fa 18 3e a7 4c 15 3e
       -0.061054364 0.04690796 0.14939483 0.14580022
000370 fe ca d5 3d a3 c7 1b 3e 76 1e c6 bd 95 58 29 be
       0.10439108 0.15212874 -0.09673779 -0.16537698
000380 0b c1 95 bd d8 2c b1 bd c2 da c5 3d 00 d2 81 b9
       -0.07312211 -0.086511314 0.09660865 -0.0002476126
000390 b4 40 8a 3d f0 d9 be bc d9 3d 83 bd 06 0f ec 3d
       0.067506224 -0.02329728 -0.06408281 0.11526303
0003a0 a1 75 11 be 90 38 24 3d 22 6d cf bd ee 09 ad bd
       -0.14205028 0.040093005 -0.10128237 -0.084491596
0003b0 e0 cc c1 bd 16 cb 1d be 1a d6 ea 3d 8f f0 1d be
       -0.09462905 -0.15409502 0.11466618 -0.15423797
0003c0 7a 14 01 be ff 75 c8 bd 40 fb 6b bd d1 ce 24 3e
       -0.12605467 -0.09788131 -0.057612658 0.16094519
0003d0 60 fd 84 3b 08 82 55 3d 99 91 0a 3e d5 bb 14 3e
       0.004058525 0.05212596 0.13532104 0.14524777
0003e0 cf 5b 02 3e 20 68 15 3c 17 0a bd bd f1 48 db bd
       0.12730335 0.009119064 -0.0923044 -0.10707272
0003f0 f0 d4 ed 3c 94 46 25 be 66 69 8e bd ec 9d 25 3d
       0.0290322 -0.16140205 -0.06953697 0.04043381

fc2_coords.bias f4 [8]
000000 46 31 c6 bd d0 5d 04 3c da 7f ea bd b0 cf 36 bd
       -0.09677367 0.008079007 -0.11450167 -0.04463166
000010 8c 19 e7 bd 59 60 02 3e 80 a6 5a bb 8d 04 0e be
       -0.112841696 0.12732066 -0.0033363402 -0.13868923

fc3.weight f4 [64, 10]
000000 57 cb 96 3e 40 03 e5 3b ab d3 9e 3e 0e be 62 be
       0.2945201 0.006988913 0.31020865 -0.22142813
000010 b0 f1 5e be 76 8e 0f be 46 82 74 3e 3d 36 81 3e
       -0.21771884 -0.14019188 0.2387782 0.25236693
000020 f4 23 97 3d c2 71 96 bd 20 45 65 bd 69 cf 05 be
       0.073799044 -0.07345916 -0.055974126 -0.13067402
000030 38 7e ee 3d 90 a9 6c be 00 19 21 bc 00 40 0c b8
       0.11645168 -0.23111558 -0.009832621 -3.3438206e-05
000040 5e 3a 53 3e 60 47 37 3e fa 63 3d 3e 00 62 1a bb
       0.20627734 0.17898321 0.1849517 -0.0023556948
000050 6f 80 3a be 50 0c aa bc 7c c4 7e be ac 18 8d be
       -0.18213056 -0.020757824 -0.2487964 -0.27557886
000060 5c cc 14 3e d5 dc 9c 3e 50 ea 81 be e0 91 ad 3d
       0.14531082 0.3063723 -0.2537408 0.08475089
000070 70 52 3e bd 72 14 29 3e 1c 8d bd bd 9c 93 e6 bd
       -0.046465337 0.16511706 -0.0925543 -0.11258623
000080 02 1f 32 3e 0e 99 74 3e 33 19 8d 3e b7 12 27 be
       0.17394641 0.2388651 0.27558288 -0.16315733
000090 e8 40 41 be 6f ce 94 be 06 b1 90 bd e8 da c4 3d
       -0.18872416 -0.29063746 -0.070650145 0.096120656
0000a0 ab 39 15 be 70 e8 a1 bc 74 78 ac bd aa 30 57 be
       -0.1457278 -0.019764155 -0.08421412 -0.21014658
0000b0 70 0c 96 bc 32 89 2b 3e 68 ea 60 be 86 f1 0a 3e
       -0.018316478 0.16751555 -0.21964419 0.13568696
0000c0 86 5a 49 3e 22 a7 49 3e da 32 81 be 48 a1 7e be
       0.19663438 0.19692662 -0.2523411 -0.24866211
0000d0 eb 87 8c 3e 62 ba 12 3e 56 c5 6f 3e f9 72 86 3e
       0.27447447 0.14328912 0.23415121 0.26259592
0000e0 40 09 e8 bd cc 68 8c bd ca 41 56 3e 12 84 44 be
       -0.11329889 -0.06855926 0.20923534 -0.19191006
0000f0 2c 69 80 be ad 4e 00 be f2 3a 21 be 20 67 63 3d
       -0.2508024 -0.12530012 -0.15745142 0.05551827
000100 71 e7 38 be 80 8e ef 3c bb 57 87 3e bf 4e 94 be
       -0.18057038 0.029242754 0.2643412 -0.28966329
000110 72 98 46 3e bd eb 94 be d3 fc 87 be 7b 1a 83 3e
       0.19394091 -0.29086104 -0.26560077 0.2560614
000120 06 72 54 3e c8 a0 9c be fe 7e 52 3e 3a 32 82 be
       0.20746621 -0.30591416 0.20556256 -0.25428945
000130 7c a6 2c be e3 8f 89 3e 46 51 20 be e8 0c e1 bd
       -0.16860384 0.2686759 -0.15656003 -0.1098879
000140 d8 5b 7f 3d 67 57 2a be e3 a3 92 3e 14 4a 1c 3e
       0.06234345 -0.16634904 0.2864066 0.15262634
000150 4a e4 2c 3e f8 e6 ae bd d2 e4 34 be 3b 1d a0 3e
       0.1688396 -0.085401475 -0.17665413 0.312723
000160 02 6f 1d 3e 8a 3c 35 3e b6 3e e4 bd 4a c4 a1 be
       0.15374377 0.17698875 -0.11144774 -0.3159507
000170 3c 7d 14 3e 30 ae eb 3c 40 47 fa 3d a3 71 09 be
       0.14500898 0.028769583 0.12220621 -0.13422255
000180 1a 6a 27 3e a9 c8 9a 3e c8 51 11 3d dc 64 22 3e
       0.16349068 0.30231217 0.035478383 0.15858787
000190 f0 80 39 3e b7 70 9a 3e bf 03 01 be 6b 5a 22 be
       0.18115592 0.3016412 -0.12599085 -0.15854804
0001a0 46 6f 65 be 33 58 87 3e 6c fb 33 3e 3e 89 33 3e
       -0.22405729 0.26434478 0.17576379 0.17532822
0001b0 5a 7b 48 3e e2 74 7d 3e 9e bc 00 3e 80 6c 02 bb
       0.19578305 0.24751619 0.12571952 -0.0019901097
0001c0 e6 6e 98 bd 2e 7f 84 be 50 77 2d bd b1 84 90 be
       -0.07443027 -0.2587828 -0.042350113 -0.28226236
0001d0 ad 8f 2c be aa 50 10 be 36 e3 94 bd 65 13 98 be
       -0.16851683 -0.14093271 -0.072698995 -0.29702297
0001e0 36 fe 6d 3e 36 02 2e 3e 22 9b 7a be 89 d9 8f 3e
       0.23241505 0.16993031 -0.24473241 0.28095654
0001f0 2a af 59 3e e1 e6 97 be 45 07 9a be 20 a9 e5 bd
       0.21258226 -0.29668334 -0.3008367 -0.11213899
000200 b4 c1 4d be d8 90 18 3e 89 1b 96 be 2a a0 10 be
       -0.20093423 0.14899004 -0.29317883 -0.14123598
000210 e8 12 58 bd 2f 29 95 be 70 a6 9c bc 64 61 a6 bd
       -0.052752405 -0.29132983 -0.019122332 -0.081240445
000220 6e f9 17 3e 58 2b 75 3d 19 99 35 be f8 5e e8 3d
       0.14841244 0.05985579 -0.17734183 0.11346239
000230 55 51 8c 3e 8e 9e 37 be ae 83 0a 3e 37 2f 9e 3e
       0.274058 -0.17931578 0.13526794 0.30895397
000240 e2 81 75 be 06 0d 60 be 88 36 54 bd 34 7f b0 3d
       -0.23975328 -0.21879968 -0.051809818 0.08618012
000250 28 82 dc 3d 00 e6 ff 3c 7b bb 9d be 4a 57 c9 bd
       0.10767013 0.031237602 -0.308071 -0.09831102
000260 06 21 4a 3e aa 51 5f be de e4 44 be 07 9a 9f 3e
       0.1973916 -0.21808496 -0.19227931 0.311722
000270 cc 0f 20 be f3 63 8b 3e da 2b 22 3e 6c bc 70 be
       -0.15631026 0.27224693 0.1583704 -0.23509377
000280 b0 cd 9a 3c 29 53 9d 3e ae ae 19 3e 83 13 8a 3e
       0.018896908 0.3072751 0.15008041 0.2696801
000290 c0 60 5c be 98 ac 16 3d c0 80 77 bd 67 81 32 be
       -0.21521282 0.036785692 -0.06042552 -0.17432176
0002a0 84 10 f7 bd 98 09 4b 3d 40 60 cd bc c0 bf 48 3d
       -0.12063697 0.049569696 -0.02507031 0.049010992
0002b0 78 b3 a2 3d 46 f4 6c be 84 96 24 3e 45 79 98 3e
       0.07944387 -0.23140058 0.16073042 0.2978002
0002c0 30 b6 3e be b3 f7 83 be e5 af 8e 3e 38 07 4f 3d
       -0.18624187 -0.25774917 0.27868572 0.050543994
0002d0 a8 7a ba 3d 75 cc 9f 3e 20 e2 d9 3c 88 38 37 bd
       0.09105426 0.31210676 0.026597083 -0.044731647
0002e0 e5 33 33 be 38 2a 67 bd 0c ce 84 be 16 3d e4 bd
       -0.17500265 -0.056436747 -0.2593845 -0.11144464
0002f0 50 b9 09 be e0 5f 63 3d 69 9e 99 3e 90 eb c3 3c
       -0.13449597 0.055511355 0.3000367 0.023916036
000300 b0 bd fc 3c 70 59 b4 3c a6 a9 63 be 19 c4 64 be
       0.030852169 0.022015303 -0.22232684 -0.2234043
000310 9e ab 7b 3e 0e a1 40 3e 11 2e 37 be 92 bd c3 bd
       0.24577186 0.18811437 -0.17888667 -0.09557642
000320 35 8e 85 3e 57 f9 42 be b9 4c 9b 3e c0 0a 8b be
       0.26085058 -0.19040428 0.30331972 -0.2715664
000330 fb 2d 8e 3e e2 bf 66 be 79 87 41 be c4 fd ad bd
       0.27769455 -0.22534135 -0.18899335 -0.084956676
000340 96 15 40 3e a4 dd 3d be e8 d3 69 bd c7 62 8d be
       0.18758234 -0.1854158 -0.057086855 -0.27614424
000350 f2 4b 6b 3e 54 ab b2 3d f6 df 46 be e0 ac a9 3c
       0.2297819 0.087240845 -0.19421372 0.020712316
000360 b0 5c c4 3d 22 b8 0e 3e f5 2f 9f 3e 70 c0 f8 bc
       0.09587991 0.13937429 0.31091276 -0.030365199
000370 24 30 ca bd 29 63 72 be ea 64 58 3e 88 fe 09 3e
       -0.09872463 -0.23670639 0.21132246 0.13476002
000380 30 dd b9 3c e5 a1 9b 3e 55 7f 94 3e 5e 90 14 be
       0.022688478 0.30396953 0.29003397 -0.14508197
000390 a0 7a e8 3c 2e c9 3f 3e a2 25 52 be 68 e7 28 3e
       0.028378785 0.18729088 -0.20522168 0.16494524
0003a0 38 c6 8f be 04 df 06 3e cc 2b 85 3d 56 50 4c 3e
       -0.28080916 0.13171011 0.06502494 0.1995252
0003b0 97 f7 85 3e a1 63 95 3e 86 c0 3c 3e 3a 15 66 3e
       0.2616546 0.29177573 0.18432817 0.22469035
0003c0 e7 70 4e be aa bb ef bd 80 f3 44 3d f8 dc 3d 3d
       -0.20160256 -0.11705716 0.048083782 0.04635331
0003d0 9a 78 65 be 20 e1 6d bc 66 67 52 be 38 59 3b be
       -0.22409287 -0.014519006 -0.20547256 -0.18295753
0003e0 59 82 a0 3e 20 b9 89 3c 00 24 45 bc 08 73 10 3e
       0.31349447 0.016811907 -0.012032509 0.14106381
0003f0 ea 2f 4e 3e f8 5d 58 bd 3a 51 14 3e 2d 63 92 3e
       0.20135465 -0.05282399 0.1448411 0.2859129

fc3.bias f4 [64]
000000 a0 60 f0 3d ab 45 8c 3e 1a 8f 7e 3e 84 16 a6 3d
       0.1173718 0.27396902 0.24859276 0.08109763
000010 00 17 a1 3d b8 ec 74 3d 0a fa 33 3e ad 7f 83 be
       0.07865715 0.059796065 0.17575851 -0.25683346
000020 ab 68 9e be 94 f2 3b 3e 50 3c 84 bc 0e 33 5c 3e
       -0.3093923 0.18354255 -0.01614204 0.21503851
000030 69 dc 02 be 31 67 a1 3e 00 ae 96 be 89 05 94 3e
       -0.12779392 0.3152404 -0.29429626 0.28910473
000040 20 01 fe bc ec e1 0f 3e 9a 54 6c 3e e2 50 b5 bd
       -0.031006396 0.14051026 0.23079148 -0.08853318
000050 ec 7f 64 be 26 d9 5d 3e ae 42 1b 3e f4 ee 64 be
       -0.22314423 0.21664867 0.15162155 -0.22356778
000060 8c d2 c5 3d aa 3a 1b be e2 85 21 3e 78 11 0c bd
       0.09659299 -0.15159097 0.15773728 -0.034196347
000070 8f af 3d be e4 62 fe 3d 0a 60 3d 3e 1d ac 8a be
       -0.18524002 0.12421206 0.18493667 -0.27084437
000080 e0 ac 6f bd 36 1b 3f be 50 9c e2 bc 3d b0 9b 3e
       -0.058514476 -0.18662724 -0.027662426 0.30407897
000090 96 17 55 3e 7a 6d 6a be 20 f8 1a 3e b7 d4 2b be
       0.20809779 -0.22893324 0.15133715 -0.16780363
0000a0 9a 4f 58 3e d8 a9 5b bd 0a cf 46 3e 9a 50 f2 bd
       0.21124116 -0.053628772 0.19414917 -0.1183178
0000b0 49 17 8a be 90 7a a9 3d 76 8c 94 be 62 94 33 3e
       -0.2697089 0.0827533 -0.29013413 0.17537072
0000c0 a0 7b d5 bd f9 ab 9d 3e 6c b8 09 be 7a 9c 88 bd
       -0.1042397 0.30795267 -0.13449258 -0.066704705
0000d0 90 3f 3d bd 0b 3d 23 be 92 be 6b 3e e4 91 2d 3e
       -0.046203196 -0.15941255 0.23021916 0.16950184
0000e0 b7 9b 98 3e 38 75 5f 3d 13 a8 99 3e ce fa 32 3e
       0.298063 0.054555148 0.30011043 0.17478487
0000f0 00 d4 7e bb 6c d1 d7 3d 8e ea 1c 3e d0 1b e5 3d
       -0.0038883686 0.10537991 0.1532385 0.111869454

fc4_binary.weight f4 [4, 64]
000000 3e 41 ce bd 48 06 ba 3d ca 15 b8 bd 58 5a ff 3d
       -0.10071038 0.09083229 -0.08988531 0.124684036
000010 7a 08 9f bd 4c 93 a7 3d d0 24 aa bd ec 9d fe 3d
       -0.07765289 0.081823915 -0.08307803 0.12432465
000020 50 99 16 bd 00 e7 de bc 98 3a fd 3c 62 87 bf bd
       -0.036767304 -0.027209759 0.030911729 -0.09351994
000030 34 af 24 bd 62 91 e2 3d 90 bf bc bc b4 e2 2a 3d
       -0.04020615 0.11062886 -0.023040563 0.041720107
000040 68 ef ad 3c 92 e2 8b bd a4 d0 f5 bd 0c 31 1d bd
       0.021232322 -0.06830324 -0.12002686 -0.038376853
000050 a0 12 f8 3d 2c 73 03 bd b0 a7 ad bd 40 f7 2c 3b
       0.121129274 -0.03209226 -0.084792495 0.002639249
000060 7c 7e c6 bd 38 f7 88 bd 9c 64 f9 3d d6 2d 9a bd
       -0.09692094 -0.06687778 0.12177393 -0.07528274
000070 20 31 83 bd c0 d9 79 bb 70 85 9d bd 24 52 58 bd
       -0.06405854 -0.0038124174 -0.07691467 -0.05281271
000080 04 fb 27 3d b8 12 8a 3d 04 09 89 bd 26 08 a5 bd
       0.04101087 0.067418516 -0.06691173 -0.08058195
000090 54 ea 36 3d 08 22 44 bd fa 52 eb 3d 36 db d7 3d
       0.044657066 -0.047884017 0.11490436 0.10539858
0000a0 94 51 c4 3d 34 1b 54 3d f0 8f cd bc e8 7d 6e bd
       0.09585872 0.051783755 -0.025093049 -0.058225542
0000b0 c0 4a a2 bc f6 4f a9 3d 34 fc 87 3d 10 e2 80 3c
       -0.019811034 0.082672045 0.06639901 0.015732795
0000c0 24 eb e9 3d b0 f3 a6 3c 84 05 eb bd f8 40 50 bd
       0.11421803 0.020379871 -0.114756614 -0.05084321
0000d0 10 23 56 bc 8c ad f7 bd 00 7c f4 3d 90 6c b5 3c
       -0.013069883 -0.12093648 0.119377136 0.022146493
0000e0 08 03 02 3d e4 7e ec bd 24 df 5b bd 1c 0f 3e 3d
       0.031741172 -0.1154764 -0.0536796 0.04640113
0000f0 c0 60 34 bd 3e b4 bc 3d 04 be be bd 5c 01 80 3d
       -0.04403758 0.09214066 -0.09313586 0.06250259
000100 34 bf dc 3d c0 f3 f1 bc a0 f2 d9 3c 6c 74 7e 3d
       0.107786566 -0.029535174 0.02660495 0.062122747
000110 20 7a b3 3c 10 d5 b9 3d 9c 6a 9a bd 48 89 7b 3d
       0.02190882 0.090738416 -0.075398654 0.06141022
000120 4c e2 5d 3d ce 88 dc bd 6e 1c ae 3d 08 2d 9b 3c
       0.05417089 -0.10768281 0.08501516 0.018942371
000130 7a ef d3 3d 26 26 c6 3d 40 ff 0c bb 0e b5 e7 3d
       0.10348411 0.09675245 -0.0021514446 0.1131383
000140 80 1d e9 3c d0 69 f7 bd 8c 67 f9 bd 1a 6e c1 bd
       0.02845645 -0.12080729 -0.12177953 -0.09444828
000150 88 34 e9 bc a0 e8 a1 bd 78 aa e2 3c 60 ec a7 bc
       -0.028467432 -0.07905698 0.027669176 -0.020498455
000160 6c 8c ea 3d d0 5d 8b 3c 9c de 7d 3d f0 3c c9 bd
       0.114525646 0.017012507 0.061979875 -0.09826076
000170 88 b6 b7 3d 00 27 a1 3c c8 7a ed 3d d6 d3 e4 bd
       0.08970362 0.019671917 0.11595684 -0.11173217
000180 4c 36 6c 3d 28 b9 f8 bd 60 8b a5 bc c0 9f f3 bd
       0.05766897 -0.12144691 -0.02020806 -0.11895704
000190 40 4a e9 3d 5a 77 81 3d 74 35 92 bd 2a cd 80 bd
       0.11391115 0.06321593 -0.071391016 -0.06289132
0001a0 e2 b8 86 bd d2 3c c5 bd d8 98 94 bc f0 e7 f9 3d
       -0.06578232 -0.09630741 -0.018139288 0.12202442
0001b0 56 28 a1 bd aa 10 c9 bd f4 83 70 bd 9a 2d fb bd
       -0.078690216 -0.098176315 -0.05871959 -0.12264557
0001c0 20 6f 5c 3c a8 c8 93 3c 00 ee a3 ba c2 56 c0 3d
       0.013454229 0.018040016 -0.0012506843 0.09391548
0001d0 d8 45 f3 bd 98 cf 3f 3d 80 37 e6 3d c6 b8 87 3d
       -0.11878556 0.046828836 0.112410545 0.066270396
0001e0 5c eb ff 3d 20 43 68 3d c4 bf d1 bd 30 75 e7 bc
       0.12496063 0.05670464 -0.102416545 -0.028254122
0001f0 5c d0 ef 3d 7c 03 ac 3d 00 f9 a8 3a 64 cb a4 3d
       0.11709663 0.08399102 0.0012891591 0.08046606
000200 90 3d 43 bc 54 94 2b 3d b4 83 af bd 74 0c 12 bd
       -0.011916533 0.041889504 -0.08570042 -0.035656407
000210 8e e4 87 bd 18 7c 97 3d 80 88 62 bb 38 4b e0 bc
       -0.0663539 0.07396716 -0.0034566224 -0.027379617
000220 b0 79 be 3c 2a 89 b4 bd a0 31 c9 3b 20 ca e4 3d
       0.023251384 -0.088152245 0.006139949 0.11171365
000230 3e d4 f2 bd c6 c0 93 bd a0 b2 11 3c c0 9f b7 bc
       -0.11856888 -0.07214503 0.008892685 -0.022415042
000240 b0 b8 19 3c 54 32 24 bd c2 ae d8 3d 48 27 31 3d
       0.009382412 -0.04008706 0.105802074 0.043250352
000250 40 8b 33 bd 8e 35 e1 3d ac a1 6c 3d 80 76 49 3d
       -0.04383397 0.10996543 0.05777137 0.049185276
000260 ba 1a ac 3d 00 28 b2 bc 60 32 bb 3c 5c 84 cf bd
       0.08403535 -0.02174759 0.02285117 -0.101326674
000270 6e 3f 96 bd aa 65 b4 bd f8 d3 4a 3d 4e 71 e7 3d
       -0.07336317 -0.088084534 0.049518555 0.11300908
000280 f0 5b 11 bd b4 cd 97 bd f2 91 9f 3d 10 e1 0a 3d
       -0.03548807 -0.07412282 0.07791509 0.033906043
000290 78 0a d1 3c 86 53 fb 3d 70 ce 16 bc e8 cf d2 bd
       0.025517687 0.1227179 -0.009204492 -0.10293561
0002a0 1e fd 8a bd 50 ef d9 bd 62 b6 8e 3d 20 c9 70 bd
       -0.067865595 -0.10641348 0.069683805 -0.058785558
0002b0 90 47 08 3d e8 d1 fe 3d b4 ea c4 3d 60 6c 0b bd
       0.033271372 0.1244238 0.096150786 -0.0340389
0002c0 be 8b dd bd bc 22 eb bd 20 2f 49 3c be aa dc bd
       -0.10817669 -0.114812344 0.012279302 -0.10774754
0002d0 fc 59 91 bd 02 27 a6 bd c6 26 f7 bd ae 73 9b bd
       -0.07097241 -0.08112909 -0.12067942 -0.075904235
0002e0 00 ef e9 bd 60 23 0b bc 0e 30 e6 3d ec 78 69 3d
       -0.11422539 -0.008492321 0.112396345 0.057000086
0002f0 42 4f 8d bd 20 8c 7e bc 24 70 67 3d d0 b0 2e 3c
       -0.06899883 -0.015536338 0.05650343 0.010662273
000300 1c cf e1 bd 60 b6 ce 3d e0 3e d4 bb 5e 27 ae 3d
       -0.11025831 0.10093379 -0.006477222 0.085036024
000310 94 98 62 bd f0 68 de bc 74 48 7d 3d 78 5d f0 3d
       -0.05532129 -0.027149647 0.061836675 0.11736578
000320 82 83 b4 3d d4 5d 73 bd a6 e6 c0 3d 7a bc b5 3d
       0.088141456 -0.059415653 0.09418993 0.0887384
000330 40 e8 f6 3c 80 48 79 3c 44 e3 93 3d fe 8d c6 3d
       0.030140042 0.015215039 0.07221082 0.096950516
000340 64 31 b1 bd 34 82 65 bd 9a 20 fe bd 4c c4 ef 3d
       -0.08651999 -0.056032375 -0.12408562 0.117073625
000350 88 49 a9 3c d0 60 65 bc ae ba 8c bd 70 32 1d bc
       0.020664945 -0.014000133 -0.06871544 -0.009594545
000360 c4 10 57 bd 58 27 88 bc 84 ea 5d 3d e2 59 90 bd
       -0.052506223 -0.016620323 0.05417873 -0.07048394
000370 3c 40 5d bd 2e 21 cc bd ec a5 d3 3d b6 f2 db bd
       -0.054016337 -0.09967266 0.103343815 -0.10739653
000380 dc bd db 3d 44 1c 9a bd f0 75 89 3d 5c e9 1b 3d
       0.10729572 -0.075249225 0.06711948 0.038064346
000390 84 52 e6 bd 38 4b bd bd 5a 60 eb 3d 00 f1 fd ba
       -0.11246207 -0.092428625 0.11492987 -0.0019374192
0003a0 e8 c1 ba 3d 20 4e 5f 3c 52 5a ee bd 80 c7 fa 3d
       0.09119016 0.013629466 -0.11638321 0.12245083
0003b0 00 49 e3 ba 7a 68 b5 3d e4 bb 9f 3d 1e b5 80 bd
       -0.0017340481 0.08857818 0.07799509 -0.06284545
0003c0 c8 92 be bc 7c 7b 4f 3d c0 a0 ce 3c 48 27 e3 3d
       -0.02326335 0.050654873 0.025223136 0.11091477
0003d0 a0 17 76 3c a0 16 ca 3b d0 ca 47 3d 4c bd 27 3d
       0.015020281 0.006167248 0.0487774 0.040952012
0003e0 10 c8 bf bc a0 f4 92 3d e6 78 b1 3d 60 3b 98 bd
       -0.023410827 0.07175565 0.08665638 -0.074332
0003f0 40 67 f5 3d b2 6e e9 bd d4 01 95 3d b8 91 06 3d
       0.11982584 -0.113980666 0.07275739 0.032853812

fc4_binary.bias f4 [4]
000000 b0 a7 79 bc 10 0c 05 bd b4 e4 dc 3d 2e 10 d8 3d
       -0.015237734 -0.032482207 0.10785809 0.10549961

fc4_indices.weight f4 [16, 64]
000000 74 72 e1 3d d8 5c 55 bd 8c 10 2e bd 48 48 8f bc
       0.11008158 -0.052090496 -0.04249625 -0.017490521
000010 52 32 ef bd 50 e6 25 3d b8 f5 0a bd 98 ed 9d bc
       -0.1167952 0.040502846 -0.033925742 -0.019278333
000020 ce ee ba 3d 3e a3 e8 bd b8 ce 40 bd c4 d6 fe 3d
       0.0912758 -0.11359261 -0.047072142 0.12443307
000030 7e 69 a1 3d 74 46 67 3d 00 97 cb bb bc 73 ba bd
       0.07881449 0.056463674 -0.006213069 -0.09104106
000040 e0 8f 9a bb 00 7c 39 ba 90 fd 09 3d f8 b4 d9 bd
       -0.0047168583 -0.00070756674 0.03368908 -0.1063022
000050 80 d0 bf 3a ec e9 eb bd 30 84 94 bd f6 a6 b7 bd
       0.0014634281 -0.115192264 -0.07251775 -0.08967392
000060 28 e0 45 bd 80 27 b2 3d 48 13 a9 bd 80 ee 16 3b
       -0.048309475 0.0869894 -0.08255631 0.002303034
000070 84 de 2d 3d 3e 97 ff bd 1a c8 8f 3d f6 4a 82 3d
       0.042448536 -0.12480019 0.07020588 0.06361954
000080 6e 6f e4 bd c8 a5 dd 3c 10 b4 f5 bd 18 d3 2c 3d
       -0.11154066 0.02705659 -0.11997235 0.042193502
000090 c6 e5 c0 3d 90 d6 06 bd 1c ca b4 3d e0 da 55 bd
       0.09418826 -0.032919466 0.08827612 -0.05221069
0000a0 c0 e4 38 bb 62 4c 90 3d 4a 54 98 bd b0 88 47 3c
       -0.0028212517 0.07045819 -0.07437952 0.012178585
0000b0 98 ec 20 bd 1c 45 fd bd 08 f1 6e 3d 40 16 30 3d
       -0.039288133 -0.12366697 0.058335334 0.04298997
0000c0 b0 b2 26 bc 14 8e e8 bd 20 49 22 3c b8 91 56 3d
       -0.010174438 -0.11355224 0.00990513 0.052385062
0000d0 20 51 fe 3d da 98 b5 3d b2 55 a1 3d c0 47 31 3d
       0.12417817 0.08867045 0.07877673 0.043281317
0000e0 6e e3 a2 bd 00 14 9b bd d4 57 6c 3d 0e 83 af 3d
       -0.07953535 -0.07572174 0.057700947 0.085699186
0000f0 4e c8 d3 3d 38 e0 80 bd 00 f9 9e 3d d8 08 cc 3d
       0.103409395 -0.06292766 0.07762337 0.09962624
000100 4e b3 8c 3d 70 24 dd bc da d4 e4 3d 24 3c e6 3d
       0.06870137 -0.026994914 0.11173411 0.1124194
000110 70 89 40 bc 2a fd 9a 3d b2 b6 e3 3d 50 c7 b2 bd
       -0.011751518 0.075678185 0.11118831 -0.08729422
000120 50 14 f3 3d 50 5b 1b 3c 36 fb eb 3d 98 01 de bd
       0.11869109 0.00948222 0.11522524 -0.10840148
000130 e8 36 e5 bc 20 34 ed 3b 20 78 c1 3c 68 0a 33 bd
       -0.027980283 0.00723888 0.02361685 -0.043711096
000140 04 42 5d 3d 4a 64 92 bd aa 66 94 bd c0 94 ce bd
       0.054018036 -0.07148035 -0.07246144 -0.100869656
000150 50 44 81 3d f8 7c d5 3d 48 09 c2 bc 20 20 7d 3d
       0.06311858 0.104242265 -0.023686066 0.061798215
000160 98 97 9a bc f4 c9 bb bd 1a 54 a2 bd 40 e1 fc 3c
       -0.018871114 -0.09169379 -0.07926197 0.030869126
000170 6c 7e 9f 3d 80 6c fa 3a 8c 1a ea bd 58 cc c0 bd
       0.07787785 0.0019105822 -0.11430845 -0.094139755
000180 5c 55 df bd 80 a9 45 3c 70 12 ad 3c 80 de 39 bd
       -0.10904953 0.012064338 0.021126956 -0.04537821
000190 50 0c 12 bd f8 f5 ec 3d 14 5f 30 3d 28 0b 6c bd
       -0.035656273 0.11570352 0.043059424 -0.057627827
0001a0 9c c5 62 3d 40 ee 8b bd 60 d9 40 3d 10 88 b4 3c
       0.055364236 -0.06832552 0.047082305 0.022037536
0001b0 8c 61 38 bd 08 f3 25 3d be 52 e0 3d 64 8e 9d bd
       -0.045014903 0.040514976 0.10953282 -0.076931745
0001c0 c4 53 ac bd 88 0b db bd a0 fc a9 3d 94 15 40 bd
       -0.084144145 -0.10695559 0.083001375 -0.04689558
0001d0 c2 12 e0 3d 68 54 0c 3d 50 1b 00 bd 9e c2 9e 3d
       0.10941078 0.034260184 -0.031276047 0.07751964
0001e0 62 07 e9 bd 18 18 5b 3d 42 ac 96 bd 80 4d ff 3a
       -0.11378361 0.053489774 -0.07357074 0.0019478053
0001f0 56 ab b1 3d 48 d7 bd bc c8 20 a6 bc 10 56 63 3c
       0.08675258 -0.023173943 -0.020279303 0.013875499
000200 88 15 d7 3c fe 9e a9 3d 70 2c 05 3d 60 b3 0c bd
       0.026255384 0.082822785 0.032513082 -0.034350753
000210 a0 c6 b6 bb 34 53 49 3d 4c 89 c8 bd d8 06 90 3d
       -0.005577877 0.049151614 -0.09791812 0.07032555
000220 8c 1d 45 3d 3a b2 be 3d 32 00 c3 bd 64 60 26 3d
       0.04812388 0.09311338 -0.09521522 0.04061927
000230 38 fb e6 3c ce b9 f9 bd 72 46 e0 3d ea 86 e0 3d
       0.028195962 -0.121936426 0.109509364 0.10963233
000240 a8 3d db 3c fc ee 4e bd 8a a6 fd bd d4 73 cd bd
       0.026762798 -0.050520882 -0.123852804 -0.10031858
000250 2e 27 8d 3d 3c ea ef bd 84 d4 43 bd 56 c0 d6 bd
       0.068922386 -0.117145985 -0.047810093 -0.10485904
000260 dc 6f 98 bd 7c bb 55 3d 74 98 87 bd 88 38 28 3d
       -0.074432105 0.052180752 -0.06620875 0.041069537
000270 c8 a2 f6 bc 52 95 b2 bd 44 ef 89 bd 60 ab ff 3d
       -0.030106917 -0.08719887 -0.067350894 0.12483859
000280 78 9b a4 bd 9e 8c bd bd 3e b8 ae bd d0 1f d6 bc
       -0.08037466 -0.09255336 -0.08531235 -0.026138216
000290 2c 06 53 bd 50 a6 00 3d 30 4f 85 bc 1e 15 d4 3d
       -0.051519558 0.031408608 -0.016273111 0.1035559
0002a0 88 dd f6 bd cc 72 f2 3d 98 1e c0 3d 18 dd 49 bd
       -0.120539725 0.11838302 0.09380835 -0.049283117
0002b0 28 e7 ba bc f6 6c fe 3d 60 b9 54 3d 80 85 87 bd
       -0.022815302 0.124231264 0.0519346 -0.0661726
0002c0 10 2f 66 3c de a6 cd 3d 80 27 5a bb c8 8f 9e bd
       0.0140493065 0.10041593 -0.0033287704 -0.07742268
0002d0 80 0c 8b ba bc f2 ac 3d b4 02 73 3d c8 05 28 3d
       -0.0010608584 0.084447354 0.05932875 0.04102114
0002e0 28 9c 94 3d b4 23 7f 3d e0 7d 3e bc b0 04 50 bc
       0.07256347 0.06228991 -0.011626691 -0.01269643
0002f0 e0 85 b7 3d 00 fe d3 3d 66 f1 9a 3d 1a 09 98 bd
       0.089610815 0.10351181 0.07565574 -0.07423611
000300 20 d6 89 bb 60 29 4e 3c 1c 24 e3 3d 8c 1e 16 bd
       -0.004206434 0.012583107 0.11090872 -0.036650226
000310 98 51 19 bd 30 cb 10 3c 7a 94 c5 bd 08 28 bc bd
       -0.03743133 0.008837506 -0.0964746 -0.09187323
000320 62 99 d2 bd 50 f1 9f 3c a0 27 b2 bc a0 29 e0 bc
       -0.10283162 0.019524246 -0.02174741 -0.027363598
000330 f0 db c0 bc 28 85 84 bc fa 5d d6 3d 10 83 25 3c
       -0.023542374 -0.016176775 0.10467143 0.0101020485
000340 a4 10 24 3d 74 dd 1b 3d 00 6e be 3b ca 95 b2 bd
       0.040054932 0.03805299 0.005811453 -0.08719976
000350 1c 04 7b bd a0 33 93 bd 00 93 83 3a dc ba 6c 3d
       -0.061283216 -0.07187581 0.0010038316 0.05779539
000360 c0 08 3a 3d c4 b5 11 3d 78 94 48 bd d8 da bd 3d
       0.0454185 0.035573736 -0.048969716 0.09270257
000370 f8 a7 19 bd 00 42 fb b9 5e 9a d5 bd 2c 97 95 3d
       -0.037513703 -0.00047923625 -0.10429834 0.07304224
000380 5a 33 e5 3d 40 a7 a9 3b 80 27 0d bd c6 63 da bd
       0.11191435 0.0051774085 -0.0344615 -0.106635615
000390 50 d7 95 bd 98 7a 71 bd 40 cd 82 3b da 5c c3 3d
       -0.07316458 -0.058954805 0.003991753 0.095391944
0003a0 e6 5e fd 3d 78 02 15 bd 20 e8 8c 3c 0c c7 81 bd
       0.12371616 -0.036379308 0.01720053 -0.06336793
0003b0 22 ca 81 3d d0 1e cd 3d 80 b4 4b 3b d0 2e 1e bd
       0.06337382 0.10015643 0.0031082928 -0.038618863
0003c0 08 56 90 bc b0 57 63 bc 60 2e e0 3d 74 71 5a bd
       -0.017619148 -0.013875887 0.10946345 -0.053330854
0003d0 cc 28 ba bd c2 f4 e4 bd 02 f5 ee 3d 60 ed 6a 3c
       -0.09089813 -0.11179496 0.11667825 0.014338821
0003e0 90 a8 ed 3c b0 58 57 3d 42 68 df 3d ec 08 5a bd
       0.02901104 0.052574813 0.109085575 -0.053231165
0003f0 40 db c5 bc d0 e8 a2 3d 78 b6 f4 3d f8 c8 b7 3d
       -0.024152398 0.07954562 0.11948866 0.089738786

fc4_indices.bias f4 [16]
000000 10 18 84 bc 04 b0 96 bd 58 dc c4 3d 58 21 9a 3d
       -0.016124755 -0.07357791 0.0961234 0.07525891
000010 c8 10 f1 bc d0 7d 8e bc 84 fc d5 bd c2 ad e3 3d
       -0.029426947 -0.017393976 -0.10448554 0.11117126
000020 d4 f4 40 bd 6a e4 90 3d d0 01 62 3d 00 1d 21 bc
       -0.047108486 0.070748165 0.05517751 -0.009833574
000030 b4 72 8d bd 2c 3e d2 bd 7e 71 e4 3d a4 3b ab 3d
       -0.069066435 -0.102657646 0.111544594 0.08360985

fc4_coords.weight f4 [8, 64]
000000 00 a3 57 ba 88 39 cf bd 48 b6 52 3d 48 3e 27 bd
       -0.0008225888 -0.10118395 0.05144337 -0.04083088
000010 6a 71 bd bd 60 77 f7 3c f2 13 f1 3d b0 07 93 bd
       -0.09250148 0.03020829 0.117713824 -0.07179201
000020 da 63 b5 bd 76 b6 e4 bd b0 bc 09 3d 44 20 8f 3d
       -0.08856936 -0.11167614 0.033627212 0.06988576
000030 48 1a 46 bd c4 87 33 bd d2 ff 8d 3d 00 e9 e2 3d
       -0.048364908 -0.043830648 0.069335595 0.110795975
000040 ba 2b ee bd 28 c5 d1 3c b0 36 76 bd 8a 9d b7 bd
       -0.11629434 0.025606707 -0.060110748 -0.08965595
000050 b0 73 8d bd 5a 99 d4 3d 7e 81 f7 3d c0 21 a7 bd
       -0.06906831 0.10380812 0.120852455 -0.08160734
000060 f0 4c e3 bc a0 75 ed 3c 60 3a ab 3d d0 90 bf bc
       -0.027746648 0.028986752 0.083607435 -0.023384482
000070 a8 1c 90 bc 30 c4 cc bd b0 97 e3 3c 78 67 e1 3c
       -0.01759179 -0.09998357 0.027782291 0.027515158
000080 60 83 9a bd 7a cc c9 bd 88 94 ef 3d 90 7b cd 3c
       -0.07544589 -0.09853454 0.11698252 0.025083333
000090 52 f6 c7 3d d8 b1 92 bc e4 1d c8 bd 50 e7 02 bd
       0.09763779 -0.017907068 -0.09771326 -0.031958878
0000a0 d0 0c 9d 3c 40 22 87 3d ec b9 d7 3d c8 75 a9 bd
       0.019171149 0.065983295 0.10533509 -0.08274418
0000b0 f2 3a 9f 3d 30 fb c4 bd 08 af 20 bd 9c 43 fd 3d
       0.07774915 -0.09618223 -0.039229423 0.12366411
0000c0 9c eb 3b bd 60 91 91 bd bc cb 5d bd 90 dd 57 3d
       -0.04587899 -0.07107806 -0.054149374 0.052701533
0000d0 42 5e b2 bd d2 2b c0 3d a8 c8 b6 3d c0 fa 45 bc
       -0.087093845 0.09383358 0.08924991 -0.012083709
0000e0 b0 4f d4 3d d0 a5 9b 3d 4a cf 94 bd cc 1f ae 3d
       0.10366762 0.075999856 -0.072661 0.085021585
0000f0 8c 6b ec bd 78 8f a0 3c 80 43 34 3b 04 c4 18 3d
       -0.115439504 0.019599661 0.0027506053 0.03729631
000100 14 b4 4a bd e0 ef 6a 3c e0 e6 b6 3b 32 62 c6 3d
       -0.049488142 0.014339417 0.0055817217 0.09686698
000110 40 ce a2 3c b6 f1 a7 bd 88 6f 8d bc 7a 08 ae bd
       0.019873738 -0.082003996 -0.017265096 -0.084977105
000120 80 ca dc bc 84 b5 33 3d 40 54 73 3c 6a 92 97 3d
       -0.026952028 0.04387428 0.01485163 0.07400973
000130 24 cc f8 bd 60 54 cd bb 00 6b 21 3b bc 11 d1 3d
       -0.12148312 -0.006266162 0.0024630427 0.10208461
000140 04 64 d9 bd e2 b1 fa bd 00 ea ea bc d8 be 8d bd
       -0.106147796 -0.1224096 -0.028676033 -0.06921166
000150 90 b5 36 3c 90 80 77 bc 00 af a9 bc 8a c0 8c 3d
       0.011151686 -0.015106335 -0.02071333 0.068726614
000160 a0 b5 a9 3c d0 d8 48 3c 20 b5 11 bd e0 1d 8a bd
       0.020716488 0.012258723 -0.035573125 -0.067439795
000170 90 a1 54 bc 90 98 bc 3d 20 0c b9 3c 1e 84 b4 3d
       -0.012977973 0.092087865 0.02258879 0.08814262
000180 66 12 d2 3d a4 af 0e 3d 50 1e fd bd 00 c3 cf ba
       0.102574155 0.034835473 -0.12359297 -0.0015850961
000190 c8 1a fe 3d ec bc d1 3d d4 f8 79 3d e4 15 f3 3d
       0.12407452 0.10241112 0.061028317 0.1186941
0001a0 b8 46 d4 bd e0 0d b4 3b 80 3e 85 3a f0 4e d7 bd
       -0.10365051 0.005494818 0.0010165721 -0.10513103
0001b0 10 9f d3 bc 00 8c 7c 3a c0 28 0f bb 66 af c0 bd
       -0.025832683 0.0009633899 -0.0021844357 -0.094084546
0001c0 ac 98 6e bd 0c ee 6c bd 5a 70 b1 bd ec a0 aa 3d
       -0.058251068 -0.057844207 -0.086640075 0.08331475
0001d0 30 93 7a bd 44 30 59 3d c8 8f fb bc 78 bd 84 bc
       -0.061175525 0.053024545 -0.030708209 -0.016203627
0001e0 e2 5c ea bd 08 d2 3c 3d 38 99 92 bc dc 58 61 bd
       -0.11443497 0.04609874 -0.017895326 -0.055016384
0001f0 c0 74 b5 bb 0e 5b 96 bd 0e 73 ce bd 9c 32 95 3d
       -0.0055375993 -0.07341586 -0.10080539 0.072850436
000200 1e d8 a4 3d 80 f9 1f 3b 08 27 db 3d 78 1f 25 bd
       0.080490336 0.0024410188 0.10700804 -0.040313214
000210 58 f6 95 bd 62 78 cb bd 14 ac cf 3d b2 7d a1 3d
       -0.07322377 -0.099350706 0.10140243 0.078853026
000220 70 e0 6a 3d 18 0b 95 bd 10 a4 26 3c 0c c0 f9 bd
       0.057342947 -0.072775066 0.0101709515 -0.12194833
000230 f0 36 ef 3c 58 ba c0 bc b0 af 1e 3c 08 fb 0a bd
       0.029201 -0.023526356 0.009685442 -0.03393081
000240 00 b3 be 3c 80 13 bb 3d 10 ff 36 3c a8 dd bf bc
       0.023278713 0.09134579 0.01116921 -0.023421124
000250 30 fc 63 3c b4 27 9b bd 18 4a 4d bd 80 a1 ac ba
       0.013915107 -0.07575932 -0.05011949 -0.0013170689
000260 c6 83 cb 3d 48 da b3 bd 00 8d 68 3c d8 a4 db bd
       0.09937243 -0.08781868 0.014193773 -0.10724801
000270 c0 b4 7e 3c 4c e6 24 bd f0 33 f9 bc a8 6d 82 3c
       0.015546024 -0.04025869 -0.030420274 0.015921429
000280 2c ca 09 bd f4 08 50 bd a4 2e 73 3d bc 01 b1 bd
       -0.03364007 -0.05078979 0.05937065 -0.08642909
000290 7c c8 0b bd 76 be c1 bd f0 b6 7f bc e0 23 00 bd
       -0.034126744 -0.09460156 -0.015607581 -0.031284213
0002a0 fc 14 f1 3d 52 cf e0 3d f4 ef e5 bd ba d1 b4 3d
       0.117715806 0.10977043 -0.11227408 0.08829065
0002b0 e0 cd 0e 3c 50 9f bf 3d 44 da bd 3d e0 07 c6 3d
       0.008716077 0.09356558 0.092701465 0.09669471
0002c0 5a c4 f4 3d e0 b3 d2 3c 0c 59 1f bd 64 7a b7 bd
       0.119515136 0.025720537 -0.03890328 -0.08958891
0002d0 a4 62 73 3d 32 2c c2 bd f4 74 4f 3d dc e4 3b 3d
       0.059420243 -0.09481086 0.050648645 0.045872554
0002e0 e8 46 f1 3d 90 81 06 bc b8 ad 41 3d 08 b9 81 bd
       0.117811024 -0.008209601 0.04728481 -0.0633412
0002f0 08 85 77 bd 40 4b 00 3b 60 d0 92 bd 50 c3 61 bc
       -0.060429603 0.0019576102 -0.071686506 -0.013779476
000300 a0 f1 9e 3b 20 b0 7b 3c b0 41 8b bc b4 14 4f 3d
       0.0048505813 0.015361816 -0.016999096 0.050556853
000310 04 a1 d6 3d 0c 6f 4b 3d 18 27 a2 3d c8 1d c1 bc
       0.1047993 0.04966645 0.07917613 -0.023573771
000320 a0 34 9c 3d 28 7f 08 3d 42 bc 9e 3d 54 de b7 3d
       0.07627225 0.03332439 0.07750751 0.089779526
000330 60 34 9d bb d8 38 cf bc d0 b9 94 3c 90 d7 4b 3c
       -0.0047975034 -0.02529566 0.018155009 0.012441531
000340 72 e7 c2 bd 40 81 f5 3c ca b0 a3 bd 9c c3 a4 bd
       -0.09516801 0.029968858 -0.07992704 -0.08045122
000350 1c 74 ec bd 90 c7 a6 bc 58 87 23 3d 80 f8 86 bc
       -0.115455836 -0.02035883 0.039923996 -0.016475916
000360 38 22 fe bd d4 7f 05 bd 60 86 14 3c 1a 72 9d bd
       -0.124088705 -0.03259261 0.009065241 -0.07687779
000370 e4 1f f8 bd 98 ee 1f bd f8 1d bb 3d 66 cb 8a bd
       -0.12115458 -0.0390459 0.091365755 -0.067770764
000380 e2 9d e7 bd 10 af 24 bd 60 dc 17 3c 02 e3 d7 3d
       -0.11309411 -0.040206015 0.00926885 0.10541345
000390 9c eb e1 bd 06 1b ab bd 28 bd 91 3d 78 22 2f bd
       -0.11031267 -0.08354764 0.07116157 -0.04275748
0003a0 56 6b f8 3d 8e 31 cd bd 60 db 78 3c a6 ea 9c 3d
       0.12129848 -0.100192174 0.015189022 0.07661943
0003b0 94 eb 01 3d 60 ba c0 3b 28 98 4f 3d 42 8c ef bd
       0.031718805 0.0058815926 0.050682217 -0.11696674
0003c0 00 fb 75 bb c0 14 40 3c 54 b4 01 bd 60 06 2f 3d
       -0.003753364 0.011723697 -0.031666115 0.04273069
0003d0 14 c2 36 bd b0 25 69 bd 80 99 da bb 16 9a e5 3d
       -0.04461868 -0.056920707 -0.0066711307 0.1121103
0003e0 f4 b7 99 bd 10 f4 87 bd 3e 9f b3 bd 66 75 82 bd
       -0.075057894 -0.06638348 -0.087706074 -0.06370048
0003f0 ec 95 47 3d 54 c3 34 3d 58 47 c5 3c 70 15 cb bc
       0.04872696 0.044131592 0.02408187 -0.024790496

fc4_coords.bias f4 [8]
000000 0a 4f 80 3d e0 25 ff 3b e6 dc fa bd d0 4b 58 bd
       0.062650755 0.0077864975 -0.12249164 -0.052806675
000010 fe f3 c5 3d 06 f5 b5 bd 20 4c dd 3d e8 6e 13 3d
       0.096656784 -0.08884625 0.10805535 0.03599444
